data.pth (torch, 5343 bytes, 6 tensors)

l1.weight f4 [8, 54]
0	0xbda1ad65	-0.078944005
1	0x3de1bd80	0.110224724
2	0xbde849a5	-0.113421716
3	0x39c2ba00	0.00037141144
4	0x3b460580	0.003021568
5	0xbdafc90c	-0.085832685
6	0xbba54600	-0.005043745
7	0xbd9a06b0	-0.07520807
8	0x3df7f6f4	0.121076494
9	0x3d4035d4	0.046926335
10	0xbdad8960	-0.08473468
11	0x3dfae7cc	0.12251243
12	0x3df5776c	0.119856685
13	0x3d166468	0.03671685
14	0x3cc3c740	0.02389872
15	0xbd61de1c	-0.05514346
16	0xbd3da032	-0.046295352
17	0xbda04118	-0.07824916
18	0xbd1f0fbe	-0.038833372
19	0xbdf94f66	-0.12173347
20	0x3dd7ad30	0.1053108
21	0xbc695d80	-0.014243484
22	0x3db6da30	0.08928335
23	0xbd122a70	-0.035685003
24	0x3bbad180	0.005701244
25	0x3daaad96	0.0833389
26	0x3d7d72a4	0.061876908
27	0x3dbc9116	0.092073604
28	0xbc02c0c0	-0.0079805255
29	0xbddadc6c	-0.106865734
30	0xbd24d65e	-0.0402435
31	0x3d46cbec	0.04853432
32	0x3d726dac	0.059186623
33	0x3ddb3d26	0.107050225
34	0x3c673680	0.014112115
35	0x3d7e9ee4	0.06216325
36	0xbdef1d29	-0.11675484
37	0xbda1a746	-0.07893233
38	0xbd49d122	-0.04927171
39	0xbc1271e0	-0.008938283
40	0x3d7aa29c	0.061190233
41	0xbcd20dfc	-0.025641434
42	0xbd30bcd0	-0.043148816
43	0x3dd55af0	0.104177356
44	0x3e066d4a	0.13127628
45	0x3df10fb0	0.1177057
46	0x3db53108	0.088472426
47	0xbdf92a62	-0.12166287
48	0xbda30d76	-0.07961552
49	0xbdf9bfba	-0.12194772
50	0xbdcff137	-0.1015343
51	0xbd66a9a2	-0.05631412
52	0xbcf93784	-0.03042198
53	0xbc225ac0	-0.009909332
54	0xbdffd0e3	-0.12491014
55	0xbda0b266	-0.07846527
56	0xbdb3c3a1	-0.08777548
57	0x3c3fd880	0.0117093325
58	0x3da86588	0.082224905
59	0x3c1be340	0.00951463
60	0x3bcc2680	0.0062301755
61	0x3c832f90	0.01601389
62	0x3da548ec	0.08070549
63	0xbcac587c	-0.021038286
64	0xbdd7783e	-0.10520981
65	0x3d1bd674	0.038046315
66	0x3d2f675c	0.04282318
67	0xbd55947e	-0.052143566
68	0xbc9f340c	-0.019433998
69	0x3d8c9b7e	0.06865595
70	0xbd24f58c	-0.040273234
71	0x3e046f12	0.12932995
72	0xbe08db09	-0.13364805
73	0xbe03d913	-0.12875776
74	0x3de33c08	0.110954344
75	0x3d5e386c	0.054253027
76	0x3d95b136	0.07309191
77	0x3c4bc2f0	0.012436613
78	0xbd35b726	-0.044364117
79	0xbcb4a94c	-0.022053383
80	0x3d90d154	0.07071176
81	0xbd53f706	-0.05174925
82	0xbdb95ada	-0.09050532
83	0x3de78d1c	0.11306211
84	0x3ddc2b6a	0.10750468
85	0xbdfaffe7	-0.12255841
86	0x3d91bfb8	0.071166456
87	0xbdae6791	-0.085158475
88	0x3de464be	0.111520275
89	0xbc8fdfe4	-0.017562814
90	0x3e03f990	0.1288817
91	0x3c3b8430	0.01144509
92	0xbdb3bf02	-0.08776666
93	0x3d5aa6bc	0.053381667
94	0xbadf1000	-0.0017018318
95	0x3dbe49a6	0.09291391
96	0xbd9cd20c	-0.07657251
97	0x3dff2ce4	0.12459734
98	0x3dfddc20	0.12395501
99	0x3d8301b8	0.06396812
100	0x3dbcc35e	0.09216951
101	0xbdef2fe3	-0.116790555
102	0xbc225ed0	-0.0099103
103	0xbdaa154c	-0.08304843
104	0xbcd805e4	-0.026369996
105	0x3d880d90	0.06643212
106	0xbb4449c0	-0.0029951185
107	0x3dd36744	0.10322431
108	0xbd9b81b8	-0.07593101
109	0x3daa8028	0.08325225
110	0x3e074c42	0.13212684
111	0x3c0e0f30	0.008670613
112	0xbd6d2b5e	-0.057902686
113	0x3dd2cab8	0.10292572
114	0x3dfb5f18	0.12273997
115	0xbe032a65	-0.12809141
116	0xbdbfe106	-0.09369092
117	0x3da0e970	0.07857025
118	0x3d9114c4	0.07084039
119	0xbdd8a6ad	-0.10578666
120	0xbdbb56cc	-0.091474146
121	0xbd7e8264	-0.06213607
122	0xbd97c920	-0.074114084
123	0x3df3e3e0	0.11908698
124	0xbb9bac60	-0.0047507733
125	0xbde03d46	-0.10949187
126	0xbddf6e8c	-0.10909757
127	0xbddea0b0	-0.108704925
128	0x3d73b564	0.05949916
129	0xbd41b796	-0.04729422
130	0xbbe4b720	-0.006979838
131	0xbe0735bb	-0.1320409
132	0xbdabe4ce	-0.083932504
133	0x3d304d00	0.043042183
134	0xbd2f7b70	-0.04284233
135	0x3e07b7f8	0.13253772
136	0xbd4a70f2	-0.04942412
137	0x3dc68b18	0.09694499
138	0xbc634b58	-0.013872944
139	0x3d8bf34a	0.06833513
140	0x3da01adc	0.07817623
141	0x3db0db78	0.0863561
142	0xbd6fcbec	-0.058544084
143	0x3d7d022c	0.06176965
144	0x3d27843c	0.040897593
145	0xbd9a9b48	-0.07549149
146	0x3cf2c5d8	0.029635355
147	0xbdf5465a	-0.11976309
148	0x3dd29898	0.10283011
149	0x3db23b2a	0.08702691
150	0xbd855861	-0.065109976
151	0x3dd23d9c	0.10265657
152	0xbd8b0671	-0.06788338
153	0xbcf91f6c	-0.03041049
154	0x3ca26148	0.019821778
155	0xbd821062	-0.06350781
156	0x3cad9048	0.021186963
157	0xbdd8a9c8	-0.10579258
158	0x3cc34270	0.02383539
159	0xbdb200ab	-0.08691534
160	0xbd40ef20	-0.047103047
161	0x3d86ec9e	0.065881
162	0x3fcb0bcf	1.5862979
163	0x3d9579fc	0.07298657
164	0xbd1adaa6	-0.037806176
165	0xbd3839ee	-0.04497712
166	0xbdd06b4e	-0.10176717
167	0x3dcbcf06	0.09951596
168	0x3de73750	0.11289847
169	0x3dc9fdec	0.09862885
170	0xbcba9b1c	-0.02277904
171	0x3df17038	0.11788982
172	0x3c5bee20	0.013423473
173	0x3cd3b070	0.025840968
174	0x3dca83ac	0.09888396
175	0xbdecf67e	-0.11570452
176	0x3dd28912	0.1028005
177	0x3dffa3a8	0.12482387
178	0xbc8ba8b0	-0.01704821
179	0xbd2774ea	-0.040882982
180	0xbd47551e	-0.04866516
181	0xbda6994f	-0.0813471
182	0xbd9b403e	-0.075806126
183	0x3d02f550	0.03197223
184	0x3dcb4e94	0.09927097
185	0x3dd8e450	0.10590422
186	0x3d834fd6	0.06411712
187	0xbda20252	-0.07910599
188	0x3d352e2c	0.044233486
189	0x3cc11298	0.023568437
190	0x3d0a57a0	0.033774972
191	0xbd9f493c	-0.0777764
192	0x3da415dc	0.08011982
193	0x3cb688c0	0.022282004
194	0xbca1f5f8	-0.019770607
195	0x3db7404a	0.08947809
196	0xbdc44112	-0.09582724
197	0xbd9fe13e	-0.078066334
198	0xbcb69d88	-0.022291914
199	0x3df78910	0.120866895
200	0xbdd331dd	-0.10312245
201	0xbd081e1e	-0.033231847
202	0x3dabe600	0.083934784
203	0xbc9891cc	-0.018624209
204	0xbd49e060	-0.049286246
205	0xbdb57a14	-0.08861175
206	0x3d3cedec	0.046125337
207	0xbc13a1d0	-0.009010747
208	0xbdb92efc	-0.09042165
209	0xbdf2d4f9	-0.118570276
210	0x3d0faae8	0.0350751
211	0x3d830b96	0.06398694
212	0xbe03a358	-0.1285528
213	0xbd403fc8	-0.046935827
214	0x3d708ad4	0.058726147
215	0xbdb0f59d	-0.08640597
216	0xbb97dd00	-0.0046344995
217	0xbdbd0160	-0.09228778
218	0x3d392de4	0.04520978
219	0x3db4cfc6	0.08828692
220	0xbd536588	-0.0516105
221	0xbe000605	-0.12502296
222	0xbc3db740	-0.011579335
223	0x3d913538	0.07090229
224	0xbd9bd78e	-0.07609473
225	0xbcbf817c	-0.023377173
226	0xbdf9dbb0	-0.12200105
227	0x3da57f38	0.08080906
228	0xbca3fbcc	-0.020017527
229	0xbddf14cd	-0.10892639
230	0xbdf9a99c	-0.121905535
231	0xbdf779a6	-0.120837495
232	0x3d901eb6	0.07037108
233	0x3dd17444	0.10227254
234	0xbc369768	-0.0111444965
235	0x3d0efbd8	0.034908146
236	0xbde5af0d	-0.11215029
237	0x3d2bc694	0.041937426
238	0x3cd0fca8	0.0255111
239	0x3e067154	0.13129169
240	0x3e01b676	0.1266726
241	0x3df46370	0.11933029
242	0xbb81b3e0	-0.0039582103
243	0xbd5e2252	-0.05423195
244	0xbc2f62e0	-0.010704726
245	0x3d8fc42e	0.0701984
246	0x3dd68a5a	0.10475607
247	0x3d955588	0.072917044
248	0xbdcc1632	-0.09965171
249	0xbce7b0bc	-0.028282516
250	0xbd9e7bbe	-0.07738446
251	0x3d9929fe	0.074787125
252	0x3db70e6e	0.08938299
253	0xbd6288b6	-0.05530616
254	0xbd9f5578	-0.07779974
255	0x3dcd7c7c	0.10033509

l1.bias f4 [8]
0	0xbd7d4f38	-0.061843127
1	0xbbb5ee75	-0.005552108
2	0xbdb6172c	-0.088911384
3	0x3dbbf314	0.09177223
4	0xbd08bada	-0.03338132
5	0xbc28ce20	-0.01030305
6	0xbc9d0324	-0.019166537
7	0x3eedcf0d	0.4644703

l2.weight f4 [8, 8]
0	0xbd462220	-0.048372388
1	0x3e803fcd	0.25048676
2	0xbd81b25c	-0.063328475
3	0x3fad0032	1.3515685
4	0x3e23ea1a	0.16007271
5	0x3deddc54	0.1161429
6	0xbe22c781	-0.15896417
7	0xbf63792c	-0.8885677
8	0x3dbbffdc	0.09179661
9	0x3e4ebfea	0.20190397
10	0x3d266538	0.040623873
11	0x3d6d64d5	0.05795749
12	0xbd88d394	-0.0668098
13	0xbe8296ce	-0.2550568
14	0x3eaed365	0.34145656
15	0xbd82b121	-0.06381441
16	0xbe3bdfb9	-0.18347062
17	0x3e3e3436	0.18574604
18	0x3d0c5b88	0.03426698
19	0xbea38224	-0.31935227
20	0xbe5164b1	-0.20448567
21	0x3e819455	0.2530848
22	0x3c9ad1a0	0.018898785
23	0x3e55676e	0.20840237
24	0xbe5e5e73	-0.21715717
25	0xbe4599a8	-0.19296896
26	0x3d6a52c0	0.057207823
27	0xbe6a38c6	-0.2287322
28	0x3e758746	0.23977384
29	0xbd1c5558	-0.038167328
30	0xbd836ce8	-0.064172566
31	0xbe5b7b64	-0.21433789
32	0xbd2eb090	-0.042648852
33	0xbd088233	-0.033327293
34	0xbd7a0068	-0.061035544
35	0x3faeac32	1.36463
36	0xbdc961b8	-0.098330915
37	0xbe7df428	-0.2480017
38	0xbd4ea5f8	-0.05045125
39	0xbf62bfab	-0.8857371
40	0xbe8c935e	-0.27456182
41	0xbcafbb50	-0.021451622
42	0x3e921c55	0.2853724
43	0xbe14f617	-0.14547001
44	0x3e830b3b	0.25594506
45	0xbe0b6e38	-0.13616264
46	0x3dcf5c4c	0.10125026
47	0xbd6599d8	-0.05605492
48	0x3ea8ab73	0.32943305
49	0xbe894998	-0.2681396
50	0x3d280a58	0.04102549
51	0x3e4321ce	0.19055864
52	0xbea049fa	-0.3130644
53	0xbe456571	-0.19276978
54	0xbea20edf	-0.3165197
55	0xbe8a6fbd	-0.27038375
56	0xbeaa71f6	-0.3329007
57	0xbcad5700	-0.021159649
58	0x3db58324	0.08862904
59	0x3f7c5c9a	0.985788
60	0x3e29782e	0.16549751
61	0xbc9a6b80	-0.018850088
62	0xbe4cc08b	-0.19995324
63	0xbeceb76c	-0.40374315

l2.bias f4 [8]
0	0x3e91406a	0.28369457
1	0x3f01baa1	0.506754
2	0xbe4bc6a9	-0.19900002
3	0xbd0c20c0	-0.03421092
4	0x3e907181	0.28211597
5	0xbe325936	-0.17416844
6	0xbea89d5b	-0.32932553
7	0x3db84ce2	0.08999039

l3.weight f4 [7, 8]
0	0xbf2054f2	-0.62629616
1	0xbe4af57d	-0.19820209
2	0xbe8486c4	-0.25884068
3	0x3e51620e	0.20447561
4	0xbf0d850a	-0.55281126
5	0x3e961c47	0.2931845
6	0x3e8f5a6b	0.2799867
7	0x3d45ac4d	0.048260022
8	0xbf45426f	-0.77054495
9	0x3ced45f6	0.028964024
10	0xbe47c3e2	-0.19508317
11	0x3e0c5172	0.13702944
12	0x3e0ce463	0.13758998
13	0x3c9c7fd0	0.019103914
14	0x3e749f0e	0.238888
15	0x3c3d0495	0.011536737
16	0xbf3f44dc	-0.74714446
17	0xbeadf90c	-0.3397907
18	0xbe721344	-0.23640162
19	0xbddbc0ba	-0.10730119
20	0xbe043390	-0.12910295
21	0x3e6a266a	0.22866216
22	0x3d9ec108	0.077516615
23	0xbd0f4451	-0.03497726
24	0xbf1b713e	-0.6071967
25	0x3ebe30ca	0.37146598
26	0x3e38cd46	0.18047056
27	0x3b81cd00	0.0039612055
28	0xbe90a1dd	-0.28248492
29	0xbdf8cfea	-0.121490315
30	0xbe8e92d7	-0.27846405
31	0xbd96d4be	-0.07364796
32	0xbf2c0416	-0.67193735
33	0xbe66e43f	-0.22548006
34	0xbd55db50	-0.052211106
35	0xbe8cda08	-0.27510095
36	0xbe09e524	-0.13466316
37	0xbd9614e0	-0.073282
38	0xbe52154e	-0.2051594
39	0x3e191d86	0.14952669
40	0xbef3ca00	-0.4761505
41	0x3deb2662	0.1148193
42	0xbe88f3b2	-0.26748425
43	0x3cc82b50	0.024434716
44	0xbce54455	-0.027986685
45	0x3e328dbe	0.17436883
46	0x3e27b926	0.16379222
47	0xbea806b4	-0.32817614
48	0x3f9086c3	1.1291126
49	0xbe30fbda	-0.17283574
50	0x3db88608	0.090099394
51	0x3d697598	0.05699691
52	0x3f4946d9	0.7862373
53	0x3eae9d43	0.34104356
54	0xbdd0ae28	-0.10189468
55	0x3f2a3fea	0.66503775

l3.bias f4 [7]
0	0x3d81d7c8	0.06339985
1	0xbd86f9fc	-0.065906495
2	0x3df0da65	0.117604055
3	0x3f02f642	0.5115701
4	0x3d8d938b	0.06912907
5	0x3e39a201	0.18128206
6	0xbebb6476	-0.36600083
